Autoencoder_CD/result/Tianhe/AE_result/CP2_val_0.002815.pth (torch, 47791 bytes, 22 tensors)

enc_x1.coupling.0.weight f4 [32, 1, 3, 3]
0	0xbe969b61	-0.2941542
1	0xbecd405b	-0.40088162
2	0xbf186e22	-0.5954305
3	0xbe927051	-0.28601316
4	0x409cd381	4.9008183
5	0xbede01eb	-0.43360838
6	0xbf2570cd	-0.64625245
7	0x3ccb87f6	0.024845105
8	0xbf5fe469	-0.874579
9	0xbfd75992	-1.682421
10	0xbf129c3a	-0.5726963
11	0x3f372494	0.7154019
12	0xbdcaa5e8	-0.09894925
13	0x40977d45	4.7340417
14	0x3f88ef05	1.0697943
15	0xc0090a7f	-2.1412656
16	0x3ff40dad	1.9066674
17	0xc02ccedc	-2.7001257
18	0xbf918430	-1.1368465
19	0xbeddc011	-0.43310598
20	0xbfb82e5d	-1.4389149
21	0xbf1eb1c7	-0.61990017
22	0x3eb4e89e	0.35333723
23	0x3d0c8fdc	0.034316882
24	0xbf54aedb	-0.8307931
25	0xbd9f7fd4	-0.07788053
26	0xbfe8c1fa	-1.8184197
27	0xbe072c28	-0.13200438
28	0xbf0480a1	-0.5175877
29	0xbfae9083	-1.3637851
30	0xbfb398f5	-1.4031054
31	0x3e54288a	0.2071859
32	0x3e13e13a	0.14441386
33	0x3da11adf	0.078664534
34	0xbd5c7f0f	-0.05383211
35	0xbff0dbbd	-1.8817059
36	0xbf61375f	-0.87975115
37	0xbeb0efca	-0.34557945
38	0xbf36915b	-0.71315545
39	0xbe34dfd6	-0.17663512
40	0x4027b503	2.620423
41	0xbdf5fbf8	-0.1201095
42	0xbf26b866	-0.6512512
43	0x3c5143d1	0.012772516
44	0xbf8c9203	-1.0982059
45	0x4002cbef	2.043697
46	0x3fbfb711	1.4977742
47	0x400c30cd	2.1904786
48	0x3fc3f8a3	1.5310253
49	0x3fed9599	1.8561279
50	0x3f8d2b82	1.1028903
51	0x3fe2e7e4	1.7727017
52	0x3fa74c6d	1.3070198
53	0x4019988a	2.3999352
54	0x3f5c7a9d	0.86124593
55	0x3f481aff	0.7816619
56	0x3f6fc2ea	0.9365679
57	0x3f3aae30	0.7292204
58	0x3f51d017	0.81958145
59	0x3ede89a6	0.43464392
60	0x3f26751f	0.6502246
61	0x3f108de5	0.56466514
62	0x3f8cf8d5	1.1013438
63	0xbf7f6a9c	-0.9977205
64	0xbe9eb6e1	-0.309989
65	0xbf19c4d4	-0.6006596
66	0x3c9461b4	0.018112995
67	0x40707591	3.7571757
68	0x3ccae2fd	0.02476644
69	0xbdc50eb5	-0.09621946
70	0x3dd35fe4	0.10321024
71	0xbf8a018f	-1.0781726
72	0xc052e857	-3.295431
73	0x3f685a1f	0.90762514
74	0xc036acf3	-2.854306
75	0x3f1cb943	0.61220187
76	0x3fea615c	1.8310962
77	0x3f9aab53	1.2083534
78	0xc0120df2	-2.2821012
79	0x3fa08f0d	1.2543656
80	0xc0500cb1	-3.2507746
81	0xbf873e2b	-1.0565847
82	0x3f3df209	0.7419744
83	0xbe704ac5	-0.23466022
84	0x3f35ef15	0.71067935
85	0x400f1c05	2.2360852
86	0x3f5201a6	0.82033765
87	0xbf00fa8b	-0.503823
88	0x3f4011b8	0.75027037
89	0xbf2c3953	-0.6727497
90	0xbf0040d1	-0.500989
91	0xbf137898	-0.57605886
92	0xbf9eb0bf	-1.2397689
93	0xbf78fc3c	-0.9725988
94	0x3e57dfbc	0.21081442
95	0x3d72ba09	0.05925945
96	0xbe451ee4	-0.19250065
97	0xbdc905c5	-0.098155536
98	0xbfda737b	-1.7066492
99	0x403a64e1	2.9124072
100	0x4014ef34	2.3270998
101	0x40425b96	3.03684
102	0x400ef7e4	2.23388
103	0x40250c64	2.5788813
104	0x3ffa1907	1.9538888
105	0x402f1f75	2.736295
106	0x40038a02	2.0552983
107	0x404af3ab	3.1711223
108	0x3f94ad33	1.1615356
109	0x3f886b21	1.0657693
110	0x3fa4742e	1.2847955
111	0x3f91fa17	1.1404446
112	0x3fc0b22e	1.5054376
113	0x3f3a9ad1	0.7289248
114	0x3f5df973	0.86708754
115	0x3f646540	0.89216995
116	0x3fc75dbc	1.557548
117	0x3ffdc3bc	1.9825358
118	0x3fd51bf6	1.6649158
119	0x4006ef79	2.1083663
120	0x3fd60bf1	1.6722394
121	0x40046393	2.0685775
122	0x3fa7849d	1.3087345
123	0x3fde1cef	1.735258
124	0x3fbc8723	1.472874
125	0x4014cd9f	2.32505
126	0x3f4801fb	0.7812802
127	0x3fce9eca	1.6142209
128	0xc0054fa5	-2.082986
129	0x3f274118	0.653337
130	0x4014bc44	2.3239908
131	0x3f8f3864	1.1189084
132	0xbfe12550	-1.7589512
133	0x3f2d4c40	0.67694473
134	0xbef1c023	-0.472169
135	0xbf4e4a81	-0.80582434
136	0xbdec554b	-0.11539706
137	0xbf719f68	-0.9438386
138	0xbe2ea721	-0.17055942
139	0x3f8c09a4	1.0940442
140	0x3d0ea0ac	0.034821197
141	0xbf519525	-0.818682
142	0x3d90f92a	0.07078774
143	0xbf635bf2	-0.8881217
144	0xbfdb49f2	-1.7131941
145	0x3e072690	0.13198304
146	0xbd813360	-0.06308627
147	0xbeff807c	-0.49902713
148	0x4037b6f1	2.8705409
149	0x3fa1200d	1.2587906
150	0x3fa1a2e5	1.2627836
151	0xbe64b38d	-0.22334118
152	0xc01a7ddc	-2.4139318
153	0x3cbf9f76	0.023391467
154	0x3fcc54a3	1.5963329
155	0x3c26a58d	0.010171306
156	0x3f83eed0	1.0307255
157	0x3edfdf51	0.43725064
158	0x3e94e30c	0.29079473
159	0xbf019f13	-0.50633353
160	0x3f4aa371	0.7915564
161	0x3f26f674	0.6521981
162	0x3f16e11f	0.5893726
163	0x3f332c95	0.699899
164	0xc0ca6dd9	-6.325909
165	0x3fa8d781	1.3190767
166	0x4051fc49	3.2810233
167	0x3fb0b23c	1.3804393
168	0xc0254378	-2.582243
169	0x3f9168d6	1.1360118
170	0x3ed455cc	0.41471708
171	0x3f1810a1	0.59400374
172	0x3f61a9ba	0.8814961
173	0x3f1bbc75	0.6083444
174	0x3f2cbdd8	0.6747718
175	0x3eed5df0	0.4636073
176	0x3eb84307	0.35988638
177	0x3eba345c	0.36368072
178	0x3f0b4e1b	0.54416054
179	0x3f558d69	0.834189
180	0xc022ee00	-2.5457764
181	0x4083d22f	4.119407
182	0xbf88e9d8	-1.0696363
183	0x405c6668	3.4437504
184	0xbd985789	-0.07438571
185	0x4054266d	3.3148453
186	0xbf4d0e3f	-0.8009986
187	0x40482d1e	3.1277537
188	0xc00b7bd3	-2.1794326
189	0xbed944b1	-0.4243522
190	0x3fbcf51b	1.47623
191	0xbf0834ca	-0.5320555
192	0x3f947831	1.159918
193	0x3f4f7071	0.81030947
194	0x3eec1d8d	0.46116295
195	0xbea50646	-0.3223135
196	0x3f0f3ff6	0.5595697
197	0xbd22e3aa	-0.0397679
198	0x400badef	2.182491
199	0x3fc2ea22	1.5227702
200	0x4014d457	2.3254602
201	0x3fc4cd3b	1.5375131
202	0x3feb1e19	1.836856
203	0x3f8df3ed	1.1090065
204	0x3ff5cf68	1.920392
205	0x3fa8aba3	1.3177379
206	0x40215ea9	2.5214026
207	0x3fd1bc34	1.638556
208	0x3f98cbcf	1.1937197
209	0x3fe31e45	1.7743613
210	0x3fa24f80	1.2680511
211	0x3fd25b04	1.6434026
212	0x3f5200a0	0.82032204
213	0x3fac45a9	1.3458759
214	0x3f839b8b	1.0281843
215	0x4001af61	2.0263293
216	0xbf993927	-1.1970567
217	0x3d9dac75	0.07698909
218	0x3b7ca1ec	0.0038548661
219	0x3e73e0ce	0.23816225
220	0x400f19a8	2.235941
221	0x3fa4effb	1.2885736
222	0x3de527f0	0.11189258
223	0x3f316f8b	0.69310826
224	0xbfe471f7	-1.7847279
225	0xbfa046e2	-1.2521632
226	0xbe991173	-0.29896125
227	0xbfb1bcfc	-1.3885798
228	0xbed204e3	-0.41019353
229	0x3f2ee591	0.6831904
230	0x3c881be8	0.01661487
231	0xbf8522b0	-1.0401211
232	0xbd062dd2	-0.03275854
233	0xbfd64f6a	-1.6742985
234	0x3f24b4d8	0.64338446
235	0x3fda6504	1.7062078
236	0x401495ac	2.3216352
237	0x40b1ea92	5.559884
238	0x409d01d6	4.906474
239	0x3f9d03cf	1.2266787
240	0x3f6d78bc	0.9276235
241	0x40820d34	4.0641117
242	0x3ff55d53	1.9169105
243	0x3ec0a7a0	0.37627888
244	0x3f1143ea	0.56744254
245	0x3e93216c	0.28736436
246	0x3e9dc852	0.30816895
247	0xbebf524d	-0.37367478
248	0x3df63336	0.120214865
249	0x3e545721	0.20736362
250	0x3e856c7d	0.26059332
251	0x3ef35976	0.4752919
252	0xbdee1989	-0.11625964
253	0x3f9e251d	1.2355076
254	0xbe4b1f18	-0.1983608
255	0x3f82e2ab	1.0225424

enc_x1.coupling.0.bias f4 [32]
0	0x3f9bec91	1.2181569
1	0xc0154149	-2.3321097
2	0x3fa29dc0	1.2704391
3	0xbe3b4279	-0.18287076
4	0x3fa08f81	1.2543794
5	0x3fc9955c	1.5748706
6	0xbe006acf	-0.12540744
7	0x3f938fbf	1.1528243
8	0x3ff36a1e	1.9016759
9	0xbfc6f5f8	-1.5543814
10	0x3ef0f24a	0.47059852
11	0x40164620	2.34803
12	0x3ed4e33a	0.4157961
13	0x3ff710e6	1.9302032
14	0x3fcd6315	1.6045862
15	0x3f5d7ae5	0.8651565
16	0xbfed7058	-1.854991
17	0xbfb13a37	-1.3845891
18	0xc0122c7c	-2.283965
19	0xbf297394	-0.66191983
20	0x3ffd0931	1.976843
21	0xbfb969de	-1.4485433
22	0x3fce3094	1.6108575
23	0x3f8c439b	1.0958132
24	0xbfd69d8f	-1.6766833
25	0x3fb7e6b1	1.4367276
26	0xbf380fc1	-0.7189904
27	0xbf1da123	-0.61574
28	0xbfab6db5	-1.3392855
29	0x3edf126c	0.43568742
30	0xbfa48f0f	-1.2856158
31	0x3f8e6fc4	1.1127858

enc_x1.coupling.2.weight f4 [32, 32, 1, 1]
0	0x3f543f8d	0.8290947
1	0x3db1bd99	0.08678741
2	0xbf4c708b	-0.79859227
3	0xbf246342	-0.64213955
4	0x3e978a44	0.29597676
5	0xbef96a70	-0.48714018
6	0xbe17da4c	-0.14829367
7	0x3f00348a	0.5008017
8	0x3e1ed809	0.15512098
9	0x3e463ad3	0.19358377
10	0xbf340490	-0.7031946
11	0xbf4ea772	-0.8072425
12	0xbe8e6504	-0.27811444
13	0xbe904dc1	-0.28184322
14	0x3ef46a2e	0.4773726
15	0x3c76f8cf	0.015073969
16	0xbf0ef21d	-0.55838186
17	0x3e4fb028	0.20282042
18	0x3f05eb92	0.52312577
19	0xbc921a8b	-0.017834922
20	0x3f4942d5	0.786176
21	0x3dd0e2de	0.101995215
22	0xbf01688f	-0.5055017
23	0xbe99cbfb	-0.30038437
24	0xbebd6923	-0.36994275
25	0xbf06f580	-0.52718353
26	0x40030299	2.0470335
27	0xbdf099bd	-0.11748073
28	0x3c8f4890	0.017490655
29	0xbf89102f	-1.0708064
30	0xbe1333df	-0.14375256
31	0x3fb05ade	1.377773
32	0x3f4b6b7b	0.7946088
33	0x3ecc3450	0.3988366
34	0xbfa92896	-1.3215511
35	0xbfa9238a	-1.3213971
36	0xbc90dbc8	-0.017682925
37	0xbe1217b0	-0.14266849
38	0x3dbc9468	0.09207994
39	0x3f29ff68	0.66405344
40	0xbe2cc94f	-0.16873668
41	0x3f037598	0.5135131
42	0xbfb02f5a	-1.376445
43	0xbf14f24f	-0.58182234
44	0x3dbc8c7a	0.09206481
45	0xbe5797c8	-0.21053994
46	0x3effaadc	0.49935043
47	0xbdd6ca68	-0.10487825
48	0xbf242cde	-0.6413096
49	0x3f275542	0.6536447
50	0x3f2fc396	0.68657815
51	0x3e954d86	0.29160708
52	0x3facb0ef	1.3491496
53	0x3ea0257c	0.31278598
54	0xbefc6c6c	-0.4930147
55	0xbe58de84	-0.21178633
56	0xbc8cfd4c	-0.017210625
57	0xbf8b1d9d	-1.0868412
58	0x405c16f7	3.4389017
59	0x3e123c42	0.14280799
60	0x3f02b9b6	0.5106462
61	0xbfdcd4f6	-1.725249
62	0x3f066bd0	0.5250826
63	0x3ffd58a6	1.9792678
64	0xbed60d99	-0.4180725
65	0xbeeefd9b	-0.4667786
66	0xbec81dbc	-0.39085186
67	0xbe889178	-0.26673484
68	0xbeb556d1	-0.35417798
69	0xbe079b6a	-0.1324288
70	0xbe1835a8	-0.14864218
71	0xbf2161a9	-0.6303964
72	0xbf232f85	-0.63744384
73	0xbeb16e15	-0.34654298
74	0xbf09cc8a	-0.53827727
75	0xbec3ce9b	-0.38243565
76	0xbdc975e8	-0.09836942
77	0xbe7cc19e	-0.24683234
78	0xbeb5c87c	-0.3550452
79	0xbed3f06a	-0.4139436
80	0xbe93084c	-0.28717268
81	0xbec72420	-0.3889475
82	0xbeb6ecf7	-0.35727665
83	0xbebbcc1c	-0.3667916
84	0xbf2e18e0	-0.68006706
85	0xbec8c974	-0.39216197
86	0xbe563c4b	-0.20921437
87	0xbdd45e0d	-0.10369501
88	0xbf0639c9	-0.52431923
89	0xbf2521ed	-0.6450489
90	0xbede24d2	-0.43387467
91	0xbec0c0e4	-0.37647164
92	0xbe66ca88	-0.22538197
93	0xbefbe927	-0.4920132
94	0xbead259d	-0.3381776
95	0xbea0f0cc	-0.31433713
96	0xbe939b33	-0.28829345
97	0x3e97eaca	0.29671317
98	0xbf17b6c6	-0.59263265
99	0xbdd6577c	-0.10465905
100	0xbede592c	-0.43427408
101	0x3e9b376e	0.30315727
102	0x3d0a570a	0.033774413
103	0xbe241960	-0.16025305
104	0xbf422e14	-0.7585156
105	0x3e0fb05f	0.14032124
106	0xbeae430c	-0.34035528
107	0x3e84d809	0.25946072
108	0x3d7d7271	0.061876718
109	0x3cceddf9	0.02525233
110	0xbede6875	-0.4343907
111	0xbef39613	-0.47575435
112	0x3e22fdb5	0.15917094
113	0x3e2231bb	0.15839283
114	0x3eafce61	0.34337142
115	0x3e7108a2	0.2353845
116	0xbf295232	-0.66141045
117	0x3eb186c8	0.34673142
118	0x3e3a67d3	0.18203668
119	0x3d828cd0	0.06374514
120	0x3ea6867b	0.32524475
121	0xbf1fd610	-0.6243601
122	0xbe9b3e58	-0.30321002
123	0x3dbf1e7b	0.093319856
124	0x3ea37e9c	0.31932533
125	0xbe9ec8dc	-0.3101262
126	0x3ec2dccb	0.38059077
127	0xbe35b8c2	-0.17746261
128	0xbea0ea66	-0.31428832
129	0x3e8d79e5	0.2763206
130	0xbebeca52	-0.37263733
131	0x3d4a39f4	0.049371675
132	0xbe90327d	-0.2816352
133	0x3ec2ad0e	0.38022655
134	0x3cbc7829	0.023006516
135	0xbe9018d1	-0.28143933
136	0xbf976b56	-1.1829631
137	0x3edcd010	0.4312749
138	0xbe512dd3	-0.20427637
139	0x3ee099a7	0.43867227
140	0x3e945dad	0.2897772
141	0x3ea2783f	0.31732365
142	0xbf09878c	-0.53722453
143	0xbebf36dd	-0.37346545
144	0x3f195abd	0.5990408
145	0x3e709a35	0.23496325
146	0x3ea0a156	0.3137309
147	0x3e084568	0.13307726
148	0xbf9e683d	-1.2375561
149	0x3edb71c1	0.42860225
150	0x3f115f63	0.56786174
151	0x3e6708e0	0.2256198
152	0x3e9c4e6e	0.30528587
153	0xbebfe23e	-0.37477297
154	0xbf1276d9	-0.572126
155	0x3e8eb93b	0.27875695
156	0x3e9fb3ec	0.31191957
157	0xbe0fdd17	-0.14049183
158	0x3ebd3f08	0.36962152
159	0xbed2777a	-0.41106778
160	0x3f07b90f	0.5301675
161	0xc00f9d5e	-2.24398
162	0x3e2f8e38	0.17144096
163	0xbc7779d8	-0.015104733
164	0x3ed09b6e	0.40743583
165	0xbf04c3c6	-0.51861227
166	0xbf0aac92	-0.5416957
167	0x3ec8d31c	0.39223564
168	0x3f919865	1.1374632
169	0xbf51bd79	-0.8192974
170	0x3b9b96aa	0.004748185
171	0xbf523529	-0.82112366
172	0xbf28d416	-0.6594862
173	0xbef0406c	-0.4692415
174	0x3f76a561	0.963461
175	0x3eddcf2b	0.4332212
176	0xbfd5ab85	-1.6692969
177	0xbf40e7da	-0.7535378
178	0xc02a7328	-2.6632786
179	0xbf07c564	-0.5303557
180	0x3fc98657	1.5744122
181	0xbf5092a0	-0.8147373
182	0xbec73774	-0.38909495
183	0xbf07615b	-0.5288293
184	0xbf82406a	-1.0175908
185	0x3e5c8e50	0.21538663
186	0xbbd20ed3	-0.0064104586
187	0xbf0e6022	-0.5561544
188	0xbf553689	-0.8328634
189	0x3d75788d	0.05992942
190	0xbf4fe8c9	-0.81214577
191	0x3f85c4ae	1.0450647
192	0xbf36f998	-0.714746
193	0x4056bd75	3.3553135
194	0xbf27a679	-0.6548839
195	0x3d317267	0.043321993
196	0xbf606b4a	-0.8766371
197	0x3f77e8a1	0.9683934
198	0x3ef33a09	0.47505215
199	0xbf027754	-0.5096333
200	0xbffa36de	-1.9547994
201	0x3fa52097	1.2900571
202	0xbecd79c2	-0.40131956
203	0x3f831940	1.0242081
204	0x3f242603	0.641205
205	0x3f7ff90e	0.999894
206	0xbfb33fc5	-1.4003836
207	0xbf55828f	-0.8340234
208	0x400242d0	2.035328
209	0x3f8ef9ad	1.1169945
210	0x4062ff25	3.5468228
211	0x3f2c3280	0.67264557
212	0xc00a9d8c	-2.165866
213	0x3fa610e3	1.2973903
214	0x3f4a21fb	0.789581
215	0x3f692ac6	0.9108089
216	0x3fc70236	1.554755
217	0xbf3b1414	-0.7307751
218	0x3d8980b8	0.06714004
219	0x3ef984e8	0.48734212
220	0x3f8c6b32	1.0970213
221	0xbdbeab57	-0.09310024
222	0x3f92dd04	1.1473699
223	0xbf7f5f22	-0.99754536
224	0xbe5f89df	-0.21829937
225	0x3f086a76	0.53287446
226	0xbf150437	-0.58209556
227	0xbe88fde0	-0.2675619
228	0xbf06d6b8	-0.52671385
229	0x3ea65741	0.32488444
230	0x3e7749eb	0.24149291
231	0xbe2a49aa	-0.16629663
232	0xbf7bbb94	-0.98333097
233	0x3eb7c292	0.35890633
234	0xbed9bcfe	-0.42527002
235	0x3e1710e6	0.1475254
236	0x3e137cd6	0.1440309
237	0x3e86f894	0.26361525
238	0xbf490bf6	-0.78533876
239	0xbef713d6	-0.4825732
240	0x3ebea12a	0.37232333
241	0x3eb13958	0.34614062
242	0x3ed16822	0.4089976
243	0x3e9dd481	0.3082619
244	0xbf8be448	-1.0929041
245	0x3ebab605	0.36466995
246	0x3edcac76	0.43100327
247	0x3eaf951b	0.34293446
248	0x3e537c3b	0.20652859
249	0xbf2e4ddc	-0.68087554
250	0xbeaff837	-0.3436906
251	0x3c64a674	0.013955701
252	0x3ec211b2	0.37904125
253	0xbec5ea32	-0.3865524
254	0x3ea53a29	0.32270935
255	0xbe4e0818	-0.20120275

enc_x1.coupling.2.bias f4 [32]
0	0x3a9cc2a4	0.0011959863
1	0xbe5a732e	-0.21333
2	0xbf0958d3	-0.5365116
3	0xbe4e7c6a	-0.20164648
4	0xbe3a0b48	-0.18168366
5	0xbda3ec1b	-0.08004018
6	0xbec35a8a	-0.38155013
7	0xbe0eb378	-0.1393565
8	0xbe45a99c	-0.19302982
9	0xbec70ce4	-0.38877022
10	0x3f275e7e	0.6537856
11	0xbe46cacd	-0.194133
12	0xbe956496	-0.29178303
13	0xbdc5519f	-0.096347086
14	0xbd85c7d6	-0.06532256
15	0xbd3eb68b	-0.046560805
16	0xbe41bb44	-0.18919092
17	0xbe498f3e	-0.19683549
18	0xbc1b28e0	-0.009470195
19	0xbd27fe23	-0.041013848
20	0xbe34ced9	-0.17657031
21	0xbdeff1cc	-0.11716041
22	0xbea203b6	-0.31643456
23	0xbe61f123	-0.22064643
24	0xbdb796bc	-0.08964297
25	0xbeca496a	-0.39509135
26	0xbdebe9c8	-0.115191996
27	0xbf021d68	-0.5082612
28	0xbe457a8e	-0.19285032
29	0xbee6fe7f	-0.4511604
30	0xbe8780ac	-0.26465356
31	0xbedb2101	-0.42798617

enc_x1.coupling.4.weight f4 [32, 32, 1, 1]
0	0xbeef26b5	-0.4670922
1	0xbf5d9680	-0.8655777
2	0x3e0cf77d	0.13766284
3	0x3e2f5153	0.17120866
4	0x3d8a720a	0.067600325
5	0xbef39014	-0.4757086
6	0x3db3a58a	0.087718084
7	0x3e79880f	0.24368308
8	0xbd6bc672	-0.0575623
9	0x3c8aaaec	0.016927205
10	0xbf51fc62	-0.8202573
11	0x3d9fec02	0.07808687
12	0x3cdc1e26	0.026869845
13	0x3d89a012	0.06719984
14	0x3bbc73df	0.0057511176
15	0x3ede16b1	0.43376687
16	0x3e933040	0.2874775
17	0x3eb310d8	0.34973788
18	0xbebc2be5	-0.3675224
19	0xbf3010a4	-0.6877539
20	0xbf22fe49	-0.6366926
21	0x3eace077	0.33765003
22	0x3e5dc2a8	0.21656287
23	0x3c132cdc	0.008982863
24	0x3e621f41	0.22082235
25	0x3e263edd	0.16234918
26	0xbe30a422	-0.17250112
27	0x3ef4f16c	0.4784044
28	0x3ea89e1e	0.32933134
29	0x3eae0e89	0.33995464
30	0x3eb42ccf	0.35190436
31	0x3e1ab813	0.15109281
32	0x3ee61deb	0.449447
33	0x3ef1a916	0.47199315
34	0xbdf812a9	-0.12112934
35	0x3d014502	0.03155995
36	0xbdf613af	-0.12015473
37	0x3e5373b0	0.206496
38	0xbe45ca20	-0.19315386
39	0xbdc5887a	-0.096451715
40	0xbda7472b	-0.08167871
41	0x3dbcc798	0.09217757
42	0x3ef4d58e	0.4781918
43	0xbe0c3b54	-0.13694507
44	0x3e722e78	0.23650539
45	0xbea5fa5f	-0.3241758
46	0xbe8228c6	-0.25421733
47	0xbdd3a84c	-0.103348345
48	0xbeafec45	-0.34359947
49	0x3dc56ef6	0.09640305
50	0x3e9e1449	0.3087485
51	0x3ebbd708	0.36687493
52	0x3e6d7469	0.23188938
53	0xbc6f1272	-0.0145918
54	0xbc665efe	-0.014060734
55	0x3ccdb2d7	0.025109692
56	0xbd8a52f0	-0.067541
57	0xbe11a23c	-0.14222044
58	0x3d907e18	0.070553005
59	0xbe208694	-0.15676337
60	0xbe538378	-0.2065562
61	0xbed1c26c	-0.40968645
62	0xbdc00e89	-0.09377772
63	0xbe32eac4	-0.17472368
64	0xbefb0f7a	-0.49035245
65	0xbf2834e7	-0.6570572
66	0xbca462d6	-0.02006666
67	0xbd651f27	-0.055937912
68	0x3e73207c	0.2374286
69	0xbebd8bcd	-0.37020722
70	0x3ec61f0a	0.38695556
71	0xbb4f0c90	-0.0031593181
72	0x3bd96d24	0.006635325
73	0x3ddf7964	0.10911825
74	0xbf3bb2ef	-0.73319906
75	0x3e3b66e3	0.18300967
76	0xbe976a01	-0.29573062
77	0x3e99663e	0.29960817
78	0x3e8f9e75	0.2805058
79	0x3eafd2cd	0.34340516
80	0x3e17006a	0.14746252
81	0x3e913e7f	0.28367993
82	0xbe8c6026	-0.27417105
83	0xbf10573c	-0.5638311
84	0xbecdabb2	-0.40170056
85	0x3d44a164	0.048005477
86	0xbdaa0498	-0.083016574
87	0x3d80f5ad	0.06296859
88	0x3dd4a20f	0.10382473
89	0xbe14ab30	-0.14518428
90	0xbdb4a761	-0.088209875
91	0x3ec6ecea	0.38852626
92	0x3dcc4714	0.099744946
93	0x3e969213	0.2940832
94	0x3da263a6	0.07929163
95	0x3e8e10e2	0.27747256
96	0xbf3decee	-0.7418965
97	0xbf1eda90	-0.6205225
98	0x3da7b06b	0.08187946
99	0xbdc55749	-0.09635789
100	0xbdc78976	-0.097430155
101	0xbf2d561c	-0.6770952
102	0x3edf29ec	0.4358667
103	0x3e4cf55e	0.20015475
104	0x3e49a4a4	0.19691712
105	0xbe013b4d	-0.12620278
106	0xbf1b310a	-0.606217
107	0x3eabd86f	0.33563563
108	0xbe566c2f	-0.20939706
109	0x3e893211	0.2679601
110	0x3e9c439d	0.30520335
111	0x3ec732b4	0.3890587
112	0xbce8d542	-0.028422002
113	0x3ea3c6b2	0.3198753
114	0xbf24cf73	-0.6437904
115	0xbf49ed3e	-0.7887763
116	0xbf288ab6	-0.65836656
117	0x3eaf1227	0.34193537
118	0xbe2915bc	-0.16512197
119	0xbf0cbc5a	-0.549749
120	0x3e758560	0.2397666
121	0x3dd90d5e	0.10598253
122	0x3bb0ff3d	0.0054015205
123	0x3f26be9f	0.65134615
124	0x3dd57d40	0.1042428
125	0x3e5dc4ca	0.216571
126	0x3e92ee7d	0.28697577
127	0x3e36657b	0.17812149
128	0xbe417091	-0.18890597
129	0xbea80789	-0.3281825
130	0xbd933718	-0.07188243
131	0x3e0da8f5	0.13833983
132	0xbd036b21	-0.032084588
133	0xbef5ba62	-0.4799376
134	0x3e5ad744	0.2137118
135	0x3e1642ed	0.14673968
136	0xbd4814a6	-0.048847817
137	0xbd8a4da2	-0.067530885
138	0xbee4518b	-0.44593462
139	0x3e1d4e38	0.1536187
140	0xbe3ef2af	-0.18647264
141	0x3e0d2766	0.1378456
142	0xbcf4c4aa	-0.029878933
143	0x3e6eec68	0.2333237
144	0x3e1269b8	0.14298141
145	0x3e5d1968	0.21591723
146	0xbdfb2fa7	-0.12264948
147	0xbeb1852b	-0.34671912
148	0xbec28fa7	-0.38000223
149	0x3e5c581e	0.21517989
150	0xbd75f087	-0.060043838
151	0xbe1634f7	-0.14668642
152	0x3c7bfbac	0.0153798275
153	0x3e347f4b	0.17626683
154	0xbdb47f10	-0.08813298
155	0x3e9ff3b1	0.3124061
156	0x3e330ee8	0.17486155
157	0x3cd4517e	0.025917765
158	0x3ce9c116	0.028534453
159	0x3d65acc8	0.05607298
160	0xbed6c32e	-0.41945785
161	0xbf20ae6a	-0.62766135
162	0x3e1b18d7	0.15146194
163	0x3dc4dce1	0.09612442
164	0x3e536252	0.20642975
165	0xbf2688ad	-0.650523
166	0x3eed925e	0.46400732
167	0x3e89b3df	0.26895043
168	0x3de175ba	0.11008783
169	0xbdfcb4f8	-0.123392045
170	0xbf25d261	-0.6477414
171	0x3e2218e7	0.15829812
172	0xbd95774b	-0.07298144
173	0x3e96e0c3	0.29468355
174	0x3ed81fb5	0.4221169
175	0x3f1eeea9	0.62082916
176	0x3e8c2a13	0.2737585
177	0x3ed91efa	0.42406446
178	0xbf091654	-0.53549695
179	0xbf3dbc46	-0.7411541
180	0xbef90bad	-0.4864172
181	0x3ee5f330	0.449121
182	0xbe1466c4	-0.14492327
183	0xbee31a0e	-0.44355816
184	0x3e1ab65e	0.1510863
185	0x3d1dbb6c	0.038508818
186	0xbe22d80c	-0.15902728
187	0x3f0225c4	0.50838876
188	0x3e5a0222	0.21289876
189	0x3eee897b	0.46589264
190	0x3ea0f840	0.314394
191	0x3e8be143	0.273203
192	0xbeb31338	-0.349756
193	0xbedf8b1d	-0.43660823
194	0xbe32ee19	-0.1747364
195	0xbd9b12e2	-0.07571961
196	0xbdad0779	-0.08448691
197	0xbe924120	-0.2856531
198	0x3e8a428b	0.27003893
199	0x3e098ac1	0.13431837
200	0xbd03e7f8	-0.032203645
201	0xbdebf454	-0.11521211
202	0xbf128682	-0.5723649
203	0x3d359d23	0.04433931
204	0xbcb20781	-0.021732094
205	0x39f5a48b	0.00046852636
206	0xbdee2052	-0.11627258
207	0x3e86f430	0.26358175
208	0xbd80b61f	-0.06284737
209	0x3e053d2e	0.1301162
210	0xbdf56f46	-0.11984114
211	0xbf13a01a	-0.5766617
212	0xbe79be2e	-0.24388954
213	0x3db8f71d	0.09031508
214	0xbe53500e	-0.20636007
215	0xbe1e977d	-0.15487476
216	0x3d37f90c	0.044915244
217	0xbe3be082	-0.18347362
218	0xbe5660fa	-0.20935431
219	0x3e8f9092	0.28039986
220	0x3e304dac	0.1721713
221	0x3e2b67f4	0.16738874
222	0x3dde06d1	0.10841144
223	0x3db5aef9	0.08871264
224	0xbf274e63	-0.65353984
225	0xbf1dd40f	-0.616517
226	0x3c8fc355	0.017549196
227	0x3d6fad0e	0.058514647
228	0x3d039f5a	0.03213439
229	0xbf0caae2	-0.54948246
230	0x3f2eb0fc	0.68238807
231	0x3eaf604d	0.3425316
232	0x3d32981a	0.043602087
233	0xbe21529e	-0.15754172
234	0xbf1dcd23	-0.6164114
235	0x3eded2cf	0.4352021
236	0xbe26a739	-0.16274728
237	0x3ecd04af	0.40042636
238	0x3ebb519d	0.36585703
239	0x3eb83a8d	0.3598217
240	0x3e19e2eb	0.15027969
241	0x3e9a4b4e	0.30135578
242	0xbec3124b	-0.38099894
243	0xbf3a2a0e	-0.7272042
244	0xbef1cc9f	-0.47226426
245	0x3e94d5b9	0.29069307
246	0x3e55aeb6	0.20867428
247	0xbe9efba2	-0.31051356
248	0x3ee85f97	0.4538543
249	0x3ce26ebb	0.027640691
250	0xbc20dece	-0.009818746
251	0x3f3503a2	0.7070867
252	0x3d8d36aa	0.06895192
253	0x3ee9eeef	0.45690104
254	0x3e96189d	0.29315653
255	0x3e264403	0.16236882

enc_x1.coupling.4.bias f4 [32]
0	0xbe7ee192	-0.24890736
1	0xbdb9df64	-0.090758115
2	0xbe455028	-0.19268858
3	0xbf0ac470	-0.5420599
4	0xbe814fa2	-0.25256068
5	0xbec75434	-0.3893143
6	0xbe74380f	-0.2384951
7	0xbecd93f4	-0.40151942
8	0xbe913831	-0.28363183
9	0xbe433964	-0.19064862
10	0xbe54867d	-0.20754428
11	0xbe414bca	-0.18876567
12	0xbf0d8cbc	-0.5529287
13	0xbe9ff594	-0.3124205
14	0xbe343843	-0.17599587
15	0xbdedc5ef	-0.116100185
16	0xbe955507	-0.29166433
17	0xbe7b3318	-0.2453121
18	0xbe9f3c3c	-0.31100643
19	0xbd42e8bd	-0.047585238
20	0xbea64719	-0.32476118
21	0xbedc4e6f	-0.4302859
22	0xbeb47cff	-0.35251614
23	0xbe257e22	-0.16161397
24	0xbe8a8f4c	-0.27062452
25	0xbe18c457	-0.14918648
26	0xbe5fc857	-0.21853767
27	0xbd92ee32	-0.071743384
28	0xbe5e0b54	-0.21684009
29	0xbed1fd90	-0.41013765
30	0xbdb78dda	-0.08962603
31	0xbe94d3dc	-0.29067886

enc_x2.coupling.0.weight f4 [32, 1, 3, 3]
0	0x3f3d031d	0.73832875
1	0xbfd126e5	-1.6339995
2	0x3e82b10b	0.25525698
3	0xbf36abb6	-0.7135576
4	0xbf87a30e	-1.0596635
5	0xbe604b5c	-0.21903747
6	0xbe26bba0	-0.16282511
7	0x3eb356c0	0.35027122
8	0xbf11e21b	-0.56985635
9	0x3f2a56e1	0.66538817
10	0x40005980	2.0054626
11	0x3f617115	0.88063174
12	0x3fc33723	1.5251201
13	0x3fc3121d	1.5239903
14	0x3f9139ac	1.1345725
15	0x3f829845	1.0202719
16	0x3f3aab13	0.7291729
17	0x3f980146	1.1875389
18	0x3f342af1	0.70378023
19	0xbfc2d223	-1.5220379
20	0x3efdd060	0.4957304
21	0xbf4cc12d	-0.7998226
22	0xbf9759bd	-1.1824261
23	0xbe52e635	-0.2059563
24	0x3ede4af7	0.4341657
25	0x3df4e6f5	0.11958114
26	0xbe010a74	-0.12601644
27	0x3f854fe8	1.041501
28	0xbfb885b5	-1.4415804
29	0x3e7a5d12	0.24449566
30	0xbf29c642	-0.6631814
31	0xbfbf8d2c	-1.4964957
32	0xbf451e4a	-0.7699934
33	0x3ce1ef13	0.02757982
34	0x3ecba570	0.39774656
35	0x3e0c1782	0.13680843
36	0xbf296a6e	-0.66178024
37	0x3fd47eb4	1.6601167
38	0xbd86a788	-0.06574923
39	0x3f1c942a	0.6116358
40	0x3fc6fe6f	1.5546397
41	0x3f524458	0.82135534
42	0xbddc12d1	-0.107457764
43	0xbf349e21	-0.70553786
44	0xbe87818c	-0.26466024
45	0x3f68a6e7	0.9087967
46	0xbfbf35b9	-1.493827
47	0x3e7983c3	0.2436667
48	0xbf43cd95	-0.7648557
49	0xbfdefb4e	-1.7420442
50	0xbf25701c	-0.6462419
51	0x3e5e18ca	0.21689144
52	0x3ec83537	0.391031
53	0xbd9e34be	-0.077249035
54	0xbe49cb92	-0.19706562
55	0x3feb7f7b	1.8398279
56	0xbd805cfb	-0.062677346
57	0x3f8b8468	1.0899782
58	0x3fd3bdde	1.6542318
59	0x3f851bee	1.0399148
60	0x3e836734	0.25664675
61	0x3e17e192	0.14832142
62	0x3f1c3954	0.61024976
63	0xbf31490b	-0.6925208
64	0x3faaa01e	1.3330114
65	0xbe291521	-0.16511966
66	0x3f8b3b48	1.0877466
67	0x3fd268ae	1.6438196
68	0x3eaf1916	0.34198827
69	0xbe12c8cc	-0.1433441
70	0xbea1de63	-0.3161498
71	0x3ddf1dab	0.108943306
72	0x3d9d9e08	0.07696158
73	0x3fe864ed	1.81558
74	0x3f7867a7	0.9703316
75	0x3fa68507	1.3009347
76	0x3fdbb668	1.7165041
77	0x3fd04a26	1.6272628
78	0x3ec7eab0	0.3904624
79	0x3f630453	0.88678473
80	0x3f8783e0	1.058712
81	0x3f988545	1.1915671
82	0xbfeadabd	-1.8348004
83	0x3e14d3b7	0.14533888
84	0xbeedaaaa	-0.4641927
85	0xbfb9cb27	-1.4515122
86	0xbf76a70d	-0.9634865
87	0x3eb83e9e	0.35985273
88	0x3eedae48	0.4642203
89	0xbd855809	-0.06510932
90	0x3f3f8a31	0.7482024
91	0xbfe6ca6c	-1.8030524
92	0x3eb5c186	0.3549921
93	0xbf1559df	-0.5834026
94	0xbfd68b80	-1.6761322
95	0xbe712314	-0.23548537
96	0x3e186df9	0.14885701
97	0x3e9b85e5	0.3037559
98	0xbebdd0c8	-0.3707335
99	0xbf3143ae	-0.69243896
100	0x3fa5aaf5	1.2942797
101	0xbdd51f93	-0.10406413
102	0x3f6c44f5	0.9229272
103	0x3fadb409	1.3570567
104	0x3f160e04	0.58615136
105	0x3e080a48	0.13285172
106	0xbeb417ff	-0.35174558
107	0xbd42a4db	-0.0475205
108	0x3f6be5e0	0.92147636
109	0xbfada1e2	-1.3565028
110	0x3ebcadad	0.36851254
111	0xbf1cd609	-0.6126409
112	0xbfd715d4	-1.6803536
113	0xbeeff746	-0.46868342
114	0x3edd13df	0.43179223
115	0x3eaf80be	0.3427791
116	0xbeac48dd	-0.3364934
117	0x3f78e10b	0.9721839
118	0xbfa05aa3	-1.252766
119	0x3efc22c1	0.49245265
120	0xbef38e95	-0.4756972
121	0xbfd622c2	-1.6729357
122	0xbf6c085c	-0.92200255
123	0xbe169e4b	-0.14708821
124	0x3f1c0dae	0.60958374
125	0xbebb4077	-0.3657262
126	0x3f1a05f5	0.6016534
127	0xbfc6f160	-1.5542412
128	0x3e069812	0.13143948
129	0xbf1d5bef	-0.61468405
130	0xbfa0ef9b	-1.2573122
131	0xbf5402fe	-0.82817066
132	0x3d30eb0f	0.04319292
133	0x3f0dd279	0.5539928
134	0xbe2163c9	-0.15760721
135	0xbf669bd6	-0.90081537
136	0x3fb7d1dd	1.436092
137	0xbee4332f	-0.445703
138	0x3f589f28	0.84617853
139	0x3f9e8e15	1.238711
140	0x3ed1dec9	0.40990284
141	0xbe01f4d8	-0.12691057
142	0xbf3586af	-0.70908636
143	0x3d0921fb	0.033479672
144	0x3f455dd9	0.77096325
145	0xbfb48df1	-1.4105817
146	0x3e759ccf	0.23985599
147	0xbf670715	-0.9024518
148	0xbfbd299a	-1.4778321
149	0xbeacc5e9	-0.33744743
150	0x3ee6f47b	0.451084
151	0x3f0ff107	0.56227154
152	0x3e3a7406	0.18208322
153	0x3f38faba	0.7225758
154	0xbfc508c7	-1.5393304
155	0x3f359a44	0.70938516
156	0xbef9e6a0	-0.48808765
157	0xbfaeb6fc	-1.3649592
158	0xbece5e39	-0.4030626
159	0x3cbddf5c	0.023177795
160	0x3f07d1d5	0.53054553
161	0xbe63a856	-0.22232184
162	0x3f322c7e	0.6959914
163	0xbfe8eab1	-1.8196622
164	0x3f022729	0.50841004
165	0xbece8b24	-0.4034053
166	0xbfce4122	-1.6113627
167	0xbf32677f	-0.6968917
168	0x3ea7e179	0.3278921
169	0x3e5928de	0.21206996
170	0xbeadd6f2	-0.33953053
171	0xbdda1c4d	-0.10649929
172	0x3fdb1fdb	1.7119097
173	0x3ea01c70	0.31271696
174	0x3f81e18a	1.0146954
175	0x3fd37e5b	1.6522936
176	0x3f86591d	1.0495945
177	0x3e668ed8	0.22515428
178	0xbe7ae71f	-0.24502228
179	0x3e9b0cfc	0.30283344
180	0x3f5a9f17	0.85399
181	0xbfbed70c	-1.4909377
182	0x3eed71f6	0.46376008
183	0xbf2191b8	-0.63112974
184	0xbfc7bcfd	-1.560455
185	0xbed9b7d3	-0.4252306
186	0x3e0bed90	0.13664842
187	0x3efbbc32	0.4916702
188	0xbd32e1c2	-0.04367233
189	0x3f361bd2	0.711362
190	0xbfb3017b	-1.3984827
191	0x3ee87131	0.45398858
192	0xbf02e8ce	-0.5113648
193	0xbfd770f9	-1.6831352
194	0xbee462e3	-0.44606695
195	0x3ddab8a1	0.106797464
196	0xbd87270b	-0.06599244
197	0xbe9aa6b5	-0.30205312
198	0x3eea2d35	0.45737615
199	0xbfcb35cc	-1.5875793
200	0x3e93736b	0.28798994
201	0xbf46ad3c	-0.77608085
202	0xbf929fcb	-1.1455015
203	0xbf223170	-0.63356686
204	0xbebaf007	-0.3651125
205	0xbd9adb5a	-0.07561369
206	0xbf4a9eaa	-0.7914835
207	0x3f10f191	0.566186
208	0xbfb3c6dc	-1.4045062
209	0x3f248674	0.6426766
210	0xbf0b66ee	-0.54453933
211	0xbfa5ac53	-1.2943214
212	0xbe809adf	-0.25118157
213	0x3e800eff	0.2501144
214	0x3e82372f	0.25432727
215	0xbc9b69a6	-0.018971276
216	0xbf61696d	-0.8805149
217	0x3fe73604	1.8063359
218	0xbec27f44	-0.3798772
219	0x3f5eaaf7	0.8697962
220	0x3fd7215b	1.6807054
221	0x3f36b02c	0.71362567
222	0xbf07f3c4	-0.5310633
223	0xbeb14ef2	-0.34630543
224	0x3c49b1be	0.012310443
225	0x3ef0fb05	0.47066513
226	0xbfc05d45	-1.5028464
227	0xbe7b241b	-0.24525492
228	0xbf8019cc	-1.0007873
229	0xbfc9fd28	-1.5780382
230	0xbf0ec911	-0.55775553
231	0xbc816c70	-0.015798777
232	0x3e917a3d	0.28413573
233	0xbf0c761c	-0.5486772
234	0x3eb5af44	0.3548528
235	0xbfd41ab2	-1.6570647
236	0x3e934975	0.2876698
237	0xbf4f6d69	-0.8102632
238	0xbf95e152	-1.1709387
239	0xbf02db1b	-0.5111558
240	0x3e054200	0.13013458
241	0x3eab5cdf	0.33469293
242	0xbbee069b	-0.007263971
243	0xbf631585	-0.8870471
244	0x3ff8726e	1.9409921
245	0xbf1fc34b	-0.6240737
246	0x3f224d9d	0.6339968
247	0x3fab4fc2	1.3383715
248	0x3f57159f	0.84017366
249	0xbeecf21e	-0.4627847
250	0xbe73cbe4	-0.23808247
251	0xbe28955b	-0.16463225
252	0x3f713a61	0.94229704
253	0xbf992cc8	-1.1966791
254	0x3eeafcfd	0.4589614
255	0xbf0703a9	-0.5273996

enc_x2.coupling.0.bias f4 [32]
0	0x3f1f72b2	0.62284386
1	0xbe8e55cf	-0.27799842
2	0x3f4e7e5a	0.8066155
3	0x3f715fdb	0.9428689
4	0xbf25d976	-0.64784944
5	0x3fb9fbe0	1.4529991
6	0xbf1d0b0d	-0.6134499
7	0xbf233fdd	-0.6376932
8	0xbea81a9b	-0.32832798
9	0x3f905e9c	1.1278872
10	0x3fb9262a	1.4464772
11	0xbeb096ed	-0.34490147
12	0x3f597976	0.8495096
13	0x3fcadb0e	1.58481
14	0x3fb9a8f7	1.4504689
15	0xbf3549f9	-0.70816
16	0x3f407b75	0.7518838
17	0x3f6c4931	0.9229918
18	0x3fb83cb4	1.4393525
19	0xbee6b0b8	-0.450567
20	0x3f8dc880	1.1076813
21	0x3f67e92e	0.9059018
22	0x3f68f2a3	0.90995234
23	0x3e8275c5	0.25480476
24	0xbf8c6733	-1.0968994
25	0x3f82aff1	1.0209943
26	0x3ee0c9db	0.43904004
27	0xbf5f48f5	-0.872207
28	0x3f427c27	0.7597069
29	0x3f178a54	0.59195447
30	0x3f0d876f	0.5528478
31	0xbf18f99f	-0.5975589

enc_x2.coupling.2.weight f4 [32, 32, 1, 1]
0	0xbe267845	-0.16256817
1	0x3ea21f90	0.31664705
2	0xbf0412c5	-0.5159114
3	0xbe888a06	-0.26667804
4	0x3e988b5a	0.29793817
5	0xbf1e9a32	-0.61954033
6	0x3e51a754	0.20473987
7	0x3eb465a8	0.35233808
8	0x3e8c306b	0.2738069
9	0xbed0244a	-0.40652686
10	0xbea21daf	-0.31663272
11	0x3dedc58f	0.11609947
12	0xbee05ba0	-0.43819904
13	0xbec1c417	-0.37844917
14	0xbebb9e62	-0.36644274
15	0x3e86c4a1	0.2632189
16	0xbe990251	-0.2988458
17	0xbea527fe	-0.32257074
18	0xbeb32104	-0.34986126
19	0x3e97574f	0.295588
20	0xbec5fc88	-0.3866923
21	0xbe83a75d	-0.25713626
22	0xbcfbeba5	-0.030752013
23	0xbe552779	-0.20815839
24	0x3f24e15a	0.6440636
25	0xbe8618a0	-0.26190662
26	0xbdece152	-0.11566414
27	0x3f0b2e14	0.54367185
28	0xbe2456b3	-0.16048698
29	0x3cda7d02	0.026670936
30	0xbeb43742	-0.35198408
31	0x3efc46ed	0.49272862
32	0x3e208b28	0.15678084
33	0xbf32d232	-0.6985198
34	0x3e918634	0.284227
35	0x3ea12de0	0.31480312
36	0xbf6660db	-0.8999154
37	0x3ecfbe0e	0.40574688
38	0xbf6d628e	-0.9272851
39	0xbf26753c	-0.65022635
40	0xbf6c309e	-0.92261684
41	0x3ebc346b	0.36758742
42	0x3ebfc1bb	0.37452492
43	0xbf33560a	-0.7005316
44	0x3eb82ac8	0.3597014
45	0x3e5424bc	0.20717138
46	0x3e2d25b8	0.1690892
47	0xbf537807	-0.8260502
48	0x3ec306f0	0.3809123
49	0x3e1f98eb	0.15585677
50	0x3ec041b1	0.3755012
51	0xbf6408d5	-0.89075977
52	0x3e699067	0.22808991
53	0x3e68f6de	0.22750422
54	0x3db11222	0.08646037
55	0x3e949d85	0.29026428
56	0xbf87312a	-1.0561879
57	0x3e9d4ae9	0.30721214
58	0x3e69a3f0	0.22816443
59	0xbf7f2560	-0.99666405
60	0x3e7b12b6	0.24518856
61	0x3f9a9fc9	1.2080013
62	0x3d78d549	0.06075028
63	0xbf358862	-0.7091123
64	0x3e0c56ea	0.1370503
65	0xbca0d831	-0.019634338
66	0x3e472869	0.19449009
67	0x3e0860fb	0.13318245
68	0xbeab7008	-0.3348391
69	0x3e8eb25f	0.2787046
70	0xbca6e014	-0.02037052
71	0xbea67962	-0.32514483
72	0xbe35bc66	-0.1774765
73	0x3e4fdf08	0.20299923
74	0x3e94b407	0.290436
75	0xbdb24daf	-0.08706223
76	0x3d26be1a	0.04070864
77	0x3e9fcae2	0.31209475
78	0x3e77a132	0.24182585
79	0xbec7fc9f	-0.39059922
80	0x3ee3f9bf	0.4452648
81	0x3e5a9eec	0.21349686
82	0x3d97797f	0.073962204
83	0xbe82ea24	-0.2556926
84	0x3e70106f	0.23443769
85	0xbd35e557	-0.04440817
86	0xbe35c2fa	-0.17750159
87	0x3e87d3c6	0.26528758
88	0xbeeaea89	-0.4588206
89	0xbe121b4a	-0.14268222
90	0x3e24c05e	0.16089007
91	0xbe11be71	-0.14232804
92	0x3d8d5c6b	0.06902393
93	0x3dd31560	0.10306811
94	0x3e822463	0.25418386
95	0xbe4dc4f7	-0.20094667
96	0xbdd50ec0	-0.10403204
97	0x3f19f868	0.6014466
98	0xbd3412fe	-0.043963425
99	0xbeb9487a	-0.36188108
100	0x3ee49d00	0.44651031
101	0xbeb8d963	-0.36103353
102	0x3f12922d	0.57254297
103	0x3f20383e	0.6258582
104	0x3ee64aaf	0.44978854
105	0xbe8be40b	-0.2732242
106	0xbedcc97b	-0.43122467
107	0x3ee081cc	0.43849027
108	0xbe1bed3d	-0.15227218
109	0xbe33df24	-0.1756559
110	0xbe332bef	-0.17497228
111	0x3f17aba4	0.5924628
112	0xbdf0d0eb	-0.11758598
113	0xbeb43973	-0.3520008
114	0xbe26ed17	-0.1630138
115	0x3eb6425f	0.35597512
116	0xbe7814e9	-0.24226727
117	0xbe45724e	-0.19281885
118	0xbdaa0644	-0.08301976
119	0xbdcdb597	-0.10044401
120	0x3f5733f7	0.8406367
121	0xbd4db1d5	-0.050218422
122	0xbe2d43cf	-0.16920398
123	0x3ef7f29b	0.4842728
124	0xbe0649ea	-0.13114133
125	0xbf016b71	-0.5055457
126	0xbdb1caa2	-0.08681227
127	0x3f1d8ca1	0.6154271
128	0x3f9af1be	1.2105024
129	0xbea90cf4	-0.33017695
130	0x3f905a99	1.1277648
131	0x3fc278b8	1.519309
132	0xbf125648	-0.57162905
133	0x3fe8d304	1.8189397
134	0xbf05e226	-0.522982
135	0xbf3bda8d	-0.7338036
136	0xbec29069	-0.380008
137	0x3fb33ace	1.4002321
138	0x3fd0f373	1.6324295
139	0xbebcbce9	-0.36862877
140	0x3fb27825	1.3942915
141	0x3fe70312	1.8047812
142	0x3fd613c8	1.6724787
143	0xbf1fde38	-0.62448454
144	0x3fb710af	1.4301966
145	0x3fb02c7f	1.3763579
146	0x3fca02b9	1.5782081
147	0xbf12bc05	-0.57318145
148	0x3fcb215c	1.5869555
149	0x3fb881fe	1.441467
150	0x3fa8a982	1.317673
151	0x3f7de9da	0.99184954
152	0xbf80974d	-1.0046173
153	0x3fc56812	1.5422385
154	0x3faf7283	1.3706821
155	0xbf172f3b	-0.5905644
156	0x3f9b7731	1.2145749
157	0x3f08a8e4	0.53382707
158	0x3f8a7cad	1.0819298
159	0xbf131022	-0.5744649
160	0xbe146e2a	-0.14495149
161	0xbdb55905	-0.0885487
162	0xbe0f7e2e	-0.14012977
163	0xbeef10d0	-0.46692514
164	0x3d86e6d5	0.065869965
165	0xbe81fecf	-0.25389716
166	0xbe6dbd0b	-0.23216645
167	0x3d632665	0.055456538
168	0xbcd9791d	-0.02654701
169	0xbe9629cd	-0.29328766
170	0xbeba12dc	-0.36342514
171	0xbe82b11a	-0.25525743
172	0xbe9064f6	-0.28202027
173	0xbf03b2f2	-0.51444924
174	0xbe824bcb	-0.2544845
175	0xbda3f23f	-0.08005189
176	0xbe8ade5b	-0.2712277
177	0xbed252ec	-0.4107889
178	0xbe107b02	-0.14109424
179	0xbe3f4a77	-0.1868075
180	0xbe8284d0	-0.25491953
181	0xbe9cf807	-0.3065798
182	0xbe478677	-0.19484888
183	0xbe73af6f	-0.23797391
184	0xbd159d83	-0.036527168
185	0xbe8eda1a	-0.27900773
186	0xbea0d9d1	-0.3141618
187	0xbe35a969	-0.17740406
188	0xbef0a92d	-0.4700407
189	0xbdc44413	-0.095832966
190	0xbeb657fe	-0.35614008
191	0xbe45de71	-0.19323136
192	0xbd8f86ac	-0.070081085
193	0x3eb6f26d	0.3573183
194	0xbced7293	-0.028985297
195	0xbec05579	-0.3756521
196	0x3f27788b	0.6541831
197	0xbeb93803	-0.36175546
198	0x3f0afe2f	0.54294103
199	0x3eefbd04	0.46823895
200	0x3f04fea5	0.51951057
201	0xbe5685df	-0.20949505
202	0xbea7a403	-0.3274232
203	0x3ef4926d	0.47767964
204	0xbe9ed08f	-0.31018493
205	0xbec7cf58	-0.39025378
206	0xbe452c7b	-0.19255249
207	0x3f4a77e3	0.7908918
208	0xbdf15766	-0.11784248
209	0xbecd0ffe	-0.40051264
210	0xbe3f8955	-0.18704732
211	0x3ed82520	0.42215824
212	0xbefb9031	-0.49133447
213	0xbd269070	-0.04066509
214	0x3b944f48	0.0045260526
215	0xbe167d5c	-0.14696258
216	0x3f59dc4b	0.85101765
217	0xbc95f764	-0.018306442
218	0xbe2ac14f	-0.16675304
219	0x3f4319b4	0.76211095
220	0xbe44b7fc	-0.1921081
221	0xbdf81bb8	-0.12114662
222	0xbe68279b	-0.22671358
223	0x3f285a80	0.6576309
224	0xbf2f86a5	-0.68564826
225	0x3e54890d	0.20755406
226	0xbf90e7c2	-1.1320727
227	0xbfa4d96e	-1.2878854
228	0x3efd021b	0.4941567
229	0xbfc7c343	-1.5606464
230	0x3ebde6ed	0.37090245
231	0x3ec6b29a	0.38808137
232	0x3e5c61a7	0.21521626
233	0xbfa0847f	-1.2540435
234	0xbfb4c668	-1.4123049
235	0x3de89e9c	0.11358377
236	0xbfa10963	-1.258099
237	0xbfc433b6	-1.5328281
238	0xbf9ff042	-1.2495196
239	0x3f014bd2	0.5050632
240	0xbf9713ce	-1.1802919
241	0xbf99c84b	-1.201425
242	0xbf8c2410	-1.0948505
243	0x3ec471ca	0.38368064
244	0xbf8fdf9e	-1.1240118
245	0xbf940ae4	-1.1565824
246	0xbf3aeccb	-0.7301757
247	0xbf80cca2	-1.0062449
248	0x3f583c01	0.8446656
249	0xbf54bcff	-0.83100885
250	0xbf35939d	-0.70928365
251	0x3efbda65	0.4919006
252	0xbf756257	-0.9585318
253	0xbee60a94	-0.44929945
254	0xbf53f3ae	-0.827937
255	0x3ec17cde	0.3779058

enc_x2.coupling.2.bias f4 [32]
0	0x3dfd8c30	0.12380254
1	0xbe909cab	-0.28244528
2	0xbd69aed0	-0.05705148
3	0x3eab52da	0.33461648
4	0x3eb1f225	0.34755054
5	0xbeabd9f9	-0.33564737
6	0x3e0d199a	0.13779297
7	0xbe864e4d	-0.26231614
8	0xbeac784f	-0.33685538
9	0x3dc77d00	0.09740639
10	0xbd9f684a	-0.077835634
11	0xbd2c935b	-0.042132717
12	0x3d061716	0.03273686
13	0x3ec320ae	0.3811087
14	0xbf033693	-0.5125515
15	0x3d9d677c	0.07685754
16	0x3e23dd61	0.16002418
17	0xbe8016da	-0.25017434
18	0xbe8a652e	-0.2703032
19	0x3d79f0c3	0.061020624
20	0x3e829be0	0.25509548
21	0xbe8a1549	-0.26969364
22	0xbedebd43	-0.4350377
23	0xbe16847a	-0.14698973
24	0x3e2cf1a2	0.1688905
25	0xbdcb23aa	-0.09918912
26	0xbe384870	-0.17996383
27	0xbe9014d5	-0.28140894
28	0xbf09f5dc	-0.53890777
29	0x3af3dbe3	0.001860496
30	0x3dd30eeb	0.1030558
31	0x3d69b3c1	0.057056192

enc_x2.coupling.4.weight f4 [32, 32, 1, 1]
0	0x3df9d5c9	0.121989794
1	0xbecaf50e	-0.39640087
2	0xbc615d30	-0.013755128
3	0x3e7128ea	0.23550764
4	0xbf1af65e	-0.60532176
5	0x3cd02fb4	0.025413372
6	0x3ece1842	0.40252882
7	0x3ed8b96d	0.4232897
8	0xbe4aa199	-0.19788207
9	0xbc1fa73c	-0.009744462
10	0xbe9677c9	-0.29388264
11	0x3d9edbd9	0.07756776
12	0xbd758e88	-0.05995038
13	0x3eed4b9e	0.46346754
14	0xbec6b91a	-0.38813096
15	0x3dee1b84	0.11626342
16	0x3e885569	0.26627663
17	0x3ed87bb5	0.4228188
18	0x3ba987c9	0.0051736576
19	0xbe4dcb0d	-0.20096989
20	0xbf1aa483	-0.60407275
21	0x3d5cb838	0.053886622
22	0xbd9ec09e	-0.077515826
23	0x3e63e42e	0.22255012
24	0x3eb6c498	0.35696864
25	0x3f459d83	0.7719347
26	0x3e93bd0d	0.28855172
27	0xbf1c17b3	-0.6097366
28	0xbf25fd56	-0.64839685
29	0x3dff5dcb	0.124690615
30	0x3dc72da6	0.097255036
31	0xbe4d37cd	-0.20040818
32	0xbe42fbb9	-0.19041337
33	0x3dfaa33f	0.12238168
34	0x3e9d7a93	0.3075758
35	0xbd9aeb28	-0.07564384
36	0x3e855ff0	0.26049757
37	0x3e2aef0c	0.16692752
38	0xbdb4e279	-0.08832259
39	0xbe7515db	-0.23934118
40	0x3dbfa0a7	0.09356814
41	0xbe74ea6d	-0.23917551
42	0x3e505300	0.20344162
43	0xbd0e92cb	-0.03480796
44	0xbdabb4f1	-0.08384121
45	0xbe9df24b	-0.30848917
46	0x3e6aa99b	0.22916262
47	0xbec445f5	-0.38334623
48	0xbd900771	-0.07032669
49	0xbe1329ef	-0.14371465
50	0x3c21add5	0.009868105
51	0x3eb9aa67	0.3626282
52	0x3ed5367c	0.4164313
53	0x3e23641f	0.15956162
54	0x3c197fc9	0.009368845
55	0xbe241069	-0.16021885
56	0xbdedef75	-0.116179384
57	0xbedb961c	-0.42887962
58	0xbead87d3	-0.33892688
59	0x3ed9fcdb	0.42575726
60	0x3ee4a902	0.44660193
61	0xbe69fc6c	-0.22850198
62	0xbe7b38d5	-0.24533398
63	0x3ddeeb8f	0.10884773
64	0x3e3fc592	0.18727711
65	0xbf14eb5d	-0.58171636
66	0x3d0df403	0.034656536
67	0x3eb9180f	0.36151168
68	0xbee5e868	-0.44903874
69	0x3dfd590b	0.12370499
70	0x3e82eb1f	0.25570008
71	0x3ec9798d	0.39350548
72	0x3ca0f690	0.01964882
73	0x3e04d790	0.12972856
74	0xbdefe3ec	-0.117133945
75	0x3d307fb4	0.043090537
76	0x3da88ab5	0.08229581
77	0x3ee15d10	0.44016314
78	0xbf0c1b8b	-0.5472953
79	0x3e157880	0.14596748
80	0x3e510843	0.20413308
81	0x3f115e35	0.56784374
82	0x3e453e99	0.1926216
83	0xbeb6c922	-0.35700327
84	0xbf056afe	-0.5211638
85	0xbe15ad83	-0.1461697
86	0xbce5cd89	-0.028052108
87	0xbd9668b1	-0.07344187
88	0x3ea09429	0.31363037
89	0x3ed9f66a	0.42570812
90	0x3ea46dfd	0.32115164
91	0xbf1e8c92	-0.61933243
92	0xbf401cbf	-0.75043863
93	0x3daf264d	0.08552227
94	0xbd1349ec	-0.03595917
95	0x3c81fece	0.01586857
96	0x3d0b5828	0.03401962
97	0xbefd99b5	-0.49531332
98	0xbea9aae7	-0.331382
99	0x3df175e9	0.11790068
100	0xbf1c9cb6	-0.6117662
101	0x3e3dfaee	0.18552753
102	0x3e529606	0.20565042
103	0x3ef25e33	0.47337493
104	0x3e49af7b	0.19695847
105	0x3e541150	0.20709729
106	0xbeb0400d	-0.34423867
107	0x3e4eec0c	0.20207232
108	0x3e6924d0	0.22767949
109	0x3f0338d4	0.5125859
110	0xbf04b067	-0.5183167
111	0x3df555e0	0.1197927
112	0xbd934e02	-0.07192613
113	0x3f243fdc	0.6415994
114	0x3d4c8834	0.04993458
115	0xbe35f259	-0.1776823
116	0xbf1d04b8	-0.61335325
117	0xbe4148e4	-0.18875462
118	0x3cf2b9a4	0.029629536
119	0x3d822e4c	0.06356487
120	0x3d4a66a5	0.049414296
121	0x3f80a55f	1.0050467
122	0x3eab37c9	0.33440998
123	0xbf28edef	-0.6598806
124	0xbf03cc7e	-0.51483905
125	0x3db6f9cd	0.089343645
126	0xbd58347b	-0.052784424
127	0xbed36923	-0.4129115
128	0x3e9989b9	0.29987887
129	0xbf007824	-0.5018332
130	0xbe6b3e05	-0.22972877
131	0x3e84ffca	0.25976402
132	0xbebb652e	-0.3660063
133	0xbe3a227d	-0.18177219
134	0x3e781178	0.24225414
135	0x3ca16419	0.01970105
136	0x3c9e4904	0.019321926
137	0x3ec307f4	0.38092005
138	0xbeb661a1	-0.3562136
139	0x3c9cb056	0.019127052
140	0x3a20707f	0.0006120279
141	0x3ed371aa	0.41297656
142	0xbe945af5	-0.28975645
143	0x3ecffaa6	0.40620917
144	0x3ec3fbbf	0.38278005
145	0x3f02ac7b	0.51044434
146	0xbe2ee878	-0.17080867
147	0xbebac73f	-0.36480138
148	0xbf000e0a	-0.5002142
149	0xbea71b99	-0.32638243
150	0xbc0b1a4e	-0.008490158
151	0x3e906896	0.28204793
152	0x3e0f013d	0.13965316
153	0x3ecacfe4	0.39611733
154	0x3ea87840	0.32904243
155	0xbf4f526e	-0.8098515
156	0xbef8258f	-0.48466155
157	0x3e1c554c	0.15266913
158	0x3c9f8ce0	0.019476354
159	0xbe767497	-0.24067913
160	0x3ca5890e	0.020206954
161	0x3ecf7e6b	0.40526137
162	0x3ddbc85e	0.107315764
163	0xbe62e194	-0.22156364
164	0x3ecde3ac	0.40212762
165	0xbda4c0c3	-0.08044579
166	0xbea7d20d	-0.32777444
167	0xbf13c993	-0.5772945
168	0x3dca9cb0	0.09893167
169	0xbe3c98fd	-0.18417735
170	0x3df6344a	0.12021692
171	0xbdfbd142	-0.12295772
172	0xbdcd3c7b	-0.10021301
173	0xbdc339b8	-0.09532493
174	0x3f03f04d	0.51538545
175	0xbeb91b79	-0.36153772
176	0xbd94c820	-0.07264733
177	0xbf36ba19	-0.7137771
178	0x3b55e3d5	0.003263702
179	0x3f054232	0.5205413
180	0x3f4418fb	0.7660062
181	0x3e14ce41	0.14531805
182	0x3e036da7	0.12834798
183	0xbe22a729	-0.15884079
184	0x3d42e7cb	0.047584336
185	0xbf32bdb0	-0.6982069
186	0xbee14433	-0.43997344
187	0x3efe0687	0.49614355
188	0x3ee3eb9f	0.44515702
189	0xbe3835ac	-0.17989224
190	0x3ca4dee5	0.020125816
191	0x3ea0839f	0.3135042
192	0xbeb236c5	-0.3480741
193	0x3ea45a75	0.32100263
194	0xbdab7522	-0.08371951
195	0xbea64ca9	-0.32480362
196	0x3c3df7a2	0.011594685
197	0xbdc15563	-0.09440114
198	0xbd482c60	-0.048870444
199	0xbe69b183	-0.22821622
200	0x3d803a25	0.0626109
201	0xbe9741a9	-0.29542282
202	0x3da09caf	0.07842385
203	0xbe57585e	-0.21029803
204	0xbe3739ad	-0.17893095
205	0xbe962a7c	-0.29329288
206	0x3e3fe498	0.18739545
207	0xbe51943c	-0.20466703
208	0xbead12b4	-0.33803332
209	0xbeafbd0c	-0.3432392
210	0xbda2f052	-0.07955994
211	0xbe34f1af	-0.1767032
212	0x3d2ef604	0.042715088
213	0xbd825da4	-0.06365517
214	0xbe0e66eb	-0.13906448
215	0xbe782830	-0.2423408
216	0xbe368206	-0.17823038
217	0xbde5fe1c	-0.11230108
218	0xbe7f26e3	-0.24917178
219	0x3e92ff00	0.28710175
220	0x3e6c83ff	0.23097228
221	0xbe55411f	-0.20825623
222	0xbdc7c9e5	-0.09755305
223	0x3e2473d4	0.1605981
224	0xbe723057	-0.23651253
225	0x3e849920	0.25898075
226	0x3e68a912	0.22720745
227	0xbe2ac9ed	-0.16678591
228	0x3ecd05bc	0.40043437
229	0xbd983e67	-0.07433777
230	0xbec12703	-0.37725076
231	0xbf11be30	-0.5693083
232	0x3db363e5	0.08759288
233	0xbdcd1d4f	-0.10015356
234	0x3df33d27	0.11876898
235	0xbdb87711	-0.09007085
236	0xbea7591f	-0.32685181
237	0xbe075644	-0.13216501
238	0x3ec4918f	0.38392302
239	0xbeca3da8	-0.39500165
240	0xbd016cb0	-0.031597793
241	0xbf45b393	-0.77227134
242	0xbe022400	-0.12709045
243	0x3eadbaec	0.33931673
244	0x3f0eb084	0.5573809
245	0xbd8ce721	-0.06880022
246	0x3d7a2fd2	0.06108076
247	0xbe1aebec	-0.1512906
248	0xbd264483	-0.04059268
249	0xbf6e0dbe	-0.9298972
250	0xbe7641e7	-0.24048577
251	0x3f333299	0.6999908
252	0x3f2e82d0	0.68168354
253	0x3d968e5f	0.07351374
254	0xbe99f707	-0.3007128
255	0x3eeb93c7	0.46011183

enc_x2.coupling.4.bias f4 [32]
0	0xbe698e56	-0.22808203
1	0xbdde4a0a	-0.108539656
2	0x3d81660f	0.06318294
3	0xbd3d09d2	-0.046151944
4	0xbd41816c	-0.047242567
5	0x3e32591a	0.17416802
6	0xbda88c58	-0.082298934
7	0x3eb28b4e	0.34871906
8	0xbe4f85dd	-0.20265909
9	0x3ce03edb	0.027373722
10	0xbc154fc8	-0.00911326
11	0xbe9309ce	-0.28718418
12	0x3d0421ce	0.0322588
13	0xbe2828ea	-0.16421857
14	0xbe0cf9c1	-0.13767149
15	0xbdeafefe	-0.11474417
16	0xbdfe5855	-0.12419192
17	0xbd915e81	-0.07098103
18	0xbe3762b0	-0.1790874
19	0xbe13c2ed	-0.14429827
20	0xbdee438e	-0.11633979
21	0x3c04bfdb	0.0081023825
22	0xbe5a009c	-0.21289295
23	0xbd41b023	-0.047287118
24	0x3e28ffd2	0.16503838
25	0xbe168a65	-0.14701231
26	0xbdcc33db	-0.09970828
27	0x3d30bfe1	0.04315174
28	0xbddf22c5	-0.10895304
29	0x3cf30f02	0.029670242
30	0xbd0bd12f	-0.03413504
31	0x3e9766cf	0.29570624
